model/model.pth (torch, 16799 bytes, 4 tensors)

linear1.weight f4 [256, 11]
00000000: c032 e1be 96ff 483e 30ee fd3e cb89 15bf
00000010: f782 edbe 7ab4 86be d5d1 a03e 9198 4ebe
00000020: b6a2 b4be 854e a5be a69b b63e ed01 d7bd
00000030: cf1b 4cbe fb03 fe3b 4713 293e d754 ae3e
00000040: 0ff9 1cbf e3ad 1fbf 17f6 ac3e 770d a63e
00000050: acd9 1fbf 8308 1abf 45ca e43e d2c1 4cbf
00000060: 7010 cf3e 9ebd d83d cf57 193e b0f3 273e
00000070: a2b0 8dbe 3484 4abe c578 67bd 0821 eebc
00000080: 14d7 23be e2d8 88be 85bc 843c 3061 3dbd
00000090: 1697 8abe 5437 e63d 1ee2 e7bd 9ba8 0d3e
000000a0: 177f 0cbe 00b9 613d ae3b b6bd 1bb4 c83c
000000b0: ce51 a03e cc6c 28bf 29b9 0fbc f49d eabd
000000c0: 4717 d0bc a309 88be 1ddf 3cbd 1019 8f3e
000000d0: d821 763e cf60 b13e 01f9 9d3e 4c2b cb3e
000000e0: 8616 5abd 3791 b83e ac33 4b3c 8642 d1be
000000f0: aad6 fe3e c493 5c3e 3db2 963e 0345 1c3f
00000100: dd98 f2bd 9701 363d 62bd 8d3e 7309 c03e
00000110: 36e2 e1be 00a9 3c3d c091 ccbd 4003 543e
00000120: 26fe 7dbe 7a97 d63c 046c eabd 69b5 3cbd
00000130: 9ece fc3d 60ea 90bc 8402 efbe 145e 1bbe
00000140: 764f b73e 4088 d2be 012d babe 3144 043f
00000150: 3cd9 bbbd e2da 31bf f544 71bf 28b3 44bb
00000160: d0bf fc3d 75cb 24be c7ed 2f3d 889b 29be
00000170: 624a f8bc 6343 91be 2e40 5e3c 8719 093d
00000180: 4ac9 3cbe 11cc a0bc f121 ccba 52c2 233a
00000190: 1b04 803c e5b8 a53d 5822 2dbe ac29 78be
000001a0: 75f8 83bd a997 fb3e 8af7 e6be 7d99 fd3d
000001b0: 8e84 1ebf 90ff 1dbf c725 58be bbc8 febd
000001c0: 6260 0c3e 4068 61be e61c 753e cb49 2d3e
000001d0: 1c02 acbe a3d3 273d eea9 aabe 6570 00bf
000001e0: f3ac bdbe f579 043d 32db 06be 111d 763c
000001f0: 6727 3d3c 1e6f 14bf 1136 e73d 623f be3e
00000200: 4100 e7be 6d7f 1a3f f078 9cbd 5ece ccbe
00000210: 280b c03c b275 913e 8caa 603e 7fd8 a3be
00000220: 5779 15be e190 3dbe 6dbe 1bbd 1431 87bd
00000230: 0e01 1fbd d1ab 46be b0b3 51bd 584a a83e
00000240: bb50 163f 7694 03bf 837a dfbc 763f 743e
00000250: dbf0 49be ea25 c23e e310 53bd bd78 f83d
00000260: aab4 e83d 9f74 79bd d4a7 f83a 94f9 f1bd
00000270: f18c 94be 9bc8 783e a3e0 8fbe c8ae 653e
00000280: e0a6 05be ce1f 46be f444 70be 634d 5cbe
00000290: ba09 7bbd 9078 78be 1d2d 6f3e ed80 ecba
000002a0: f602 a13e 5095 be3d ce95 b5be ea97 b5be
000002b0: 9327 b03e d85b e13e 2a8a 6abe aa51 61be
000002c0: 334b 513e 7f4c 173e 3566 913e 2a45 d83c
000002d0: e01c 06be ceaa f8bd f566 5cbe ca68 30bd
000002e0: e50a 4c3e 813c 2ebe aaf0 b13e 23a8 36bd
000002f0: afe6 c63d 7507 6cbe b4e3 11be c660 90be
00000300: 7573 3ebf 8c29 f4be 6cc2 6d3d b4e6 c33e
00000310: 870c 21be f9be e1be 6a03 2f3d 3a70 e1be
00000320: 2d02 48bc 4437 953e ed22 1ebf 0723 2a3f
00000330: c0e6 63be 969a a33d 6790 32bf d99a 11be
00000340: 76a5 65bf 73ee f63d 905d 063f 0df2 1b3e
00000350: 8fba 3e3e 8198 33be 347e 96be c084 5b3e
00000360: b9f7 5cbd 8cbb f43e d509 883e 6498 8d3e
00000370: 89e5 babe 68f5 88bc 7a22 d43d 284b 8fbe
00000380: 0328 d63e e7a1 c33e 4102 cb3e 3da5 19bf
00000390: 8821 f9bd dd99 ae3d 21f9 023e fef6 1b3e
000003a0: 4b9e b5be 6a4e 94be 0968 9f3e fd33 ad3e
000003b0: a14e e6bb 01ac 87bc cab1 f43d 1b91 4e3e
000003c0: 9bc9 53bf d830 a4be 5ce4 d9be 5556 2abe
000003d0: 87cd 8ebe 6105 20be 4df7 d3bd 30fd efbd
000003e0: f480 8ebd 3ca4 733c a283 5d3e 8804 8a3e
000003f0: ba77 833e a756 823d 96b1 06be 9cb0 28bf
-0.43984032 0.19628748 0.49595785 -0.5841338 -0.4638898 -0.26309568 0.3141009 -0.20175387
-0.3528039 -0.32286468 0.35665625 -0.10498414 -0.19932483 0.0077519394 0.1651126 0.34049103
-0.61317533 -0.62374705 0.33781502 0.32432148 -0.62441516 -0.6016924 0.4468557 -0.79983246
0.40442228 0.105830416 0.14974903 0.16401553 -0.27673823 -0.19776994 -0.05651166 -0.029068485
-0.16000015 -0.26727968 0.016203174 -0.046235263 -0.27068394 0.11241022 -0.11322425 0.13833849
-0.13720356 0.05510807 -0.08898102 0.024499943 0.31312412 -0.6579101 -0.008772173 -0.114559084
-0.025401725 -0.26569852 -0.046111215 0.2794881 0.24036348 0.34644172 0.30854037 0.3968147
-0.053244136 0.3604829 0.012402456 -0.40871066 0.4977315 0.21540743 0.2943286 0.61042804
-0.118455626 0.04443511 0.2768355 0.3750721 -0.44117898 0.04605961 -0.09988737 0.20704365
-0.24803981 0.026195277 -0.114463836 -0.046071444 0.123440966 -0.017689884 -0.46681607 -0.15172607
0.3580281 -0.41119576 -0.3636246 0.5166655 -0.091722935 -0.69474614 -0.94245845 -0.0030014012
0.12341273 -0.16093238 0.04295137 -0.16563237 -0.030308906 -0.28371724 0.013565106 0.03347161
-0.1843616 -0.019628556 -0.001557408 0.00062469125 0.015626958 0.080919065 -0.16907632 -0.24234647
-0.06443874 0.49139145 -0.45110732 0.12382791 -0.6192101 -0.6171808 -0.21108161 -0.1244063
0.13708642 -0.22012424 0.23936805 0.16922681 -0.3359536 0.040973317 -0.3333277 -0.501715
-0.37046012 0.03234287 -0.13169554 0.015021578 0.011545039 -0.5798205 0.11289609 0.37157732
-0.4511738 0.60350686 -0.076402545 -0.40001196 0.02344282 0.28410107 0.21940058 -0.3200111
-0.14597069 -0.18512298 -0.0380234 -0.06601158 -0.038819365 -0.1940148 -0.051196754 0.3286922
0.58716935 -0.5139841 -0.027280098 0.23852333 -0.19720785 0.3791955 -0.051529776 0.12132404
0.11362584 -0.060902234 0.0018970915 -0.118151814 -0.2901378 0.24295275 -0.28101072 0.22429955
-0.13051939 -0.1934807 -0.23463804 -0.21513896 -0.061288573 -0.24264741 0.23357053 -0.0018043794
0.31447572 0.09305823 -0.35465854 -0.35467464 0.34405193 0.44015384 -0.22904268 -0.22003809
0.20438842 0.14775275 0.2839829 0.026400167 -0.13096952 -0.121419534 -0.2152365 -0.043068685
0.19926031 -0.17015268 0.34753925 -0.04459394 0.09711968 -0.2304972 -0.14247018 -0.28198832
-0.74394923 -0.47687948 0.058046743 0.3826195 -0.15727435 -0.44091013 0.042727865 -0.44030935
-0.01220755 0.29143727 -0.6177204 0.664597 -0.22255993 0.07988469 -0.6975159 -0.14219226
-0.897056 0.12057199 0.52486515 0.15229054 0.18625854 -0.17538644 -0.2939316 0.21437359
-0.053947184 0.47799337 0.2657 0.27655327 -0.36503246 -0.016718581 0.103581384 -0.27987027
0.41827402 0.3820946 0.39650157 -0.6001776 -0.12164599 0.08525441 0.12790348 0.15230939
-0.3547233 -0.28966075 0.3113406 0.33828726 -0.0070284163 -0.01656151 0.11947973 0.20172541
-0.827295 -0.32068515 -0.42557037 -0.16634496 -0.2789118 -0.15627052 -0.10349903 -0.117182136
-0.069581896 0.0148706995 0.21632245 0.26956582 0.25677282 0.06364184 -0.13153681 -0.65894485

linear1.bias f4 [256]
00000000: 3f7b e3bd 3298 d13e 7ba5 cd3b 2b4f a9be
00000010: 98bf b6be bc82 b3be 3a13 e3be ac8c b03e
00000020: abcd 5bbe d377 dfbd 2916 0abe 28c1 43bd
00000030: 3e21 cdbe d0d9 f0be 4260 afbe 44e8 04be
00000040: b8ea 09bf 2f5c d33b 38c8 db3e e7ab a2be
00000050: 720b c33e 573b d33c bd41 80be 4ec9 743d
00000060: 1210 86be d967 d8bd 96df 1abd 907a 29be
00000070: e977 b6be 9d56 f6be 2513 b13d 3a32 d93d
00000080: c5a0 84bc 9047 0bbe 362a 883d f427 a4be
00000090: 71aa f2be 1257 03be 8b1b a3bc a979 c33d
000000a0: 942b 4f3e 6519 5abe a2dc a1be 049e 11be
000000b0: 5e8d 253d 6d1b 05bf 151c adbe b4f3 a7be
000000c0: 804c 763e 71a4 6bbe da23 94be 801c 133f
000000d0: 693e a2be cc4f d8be a003 a93e 028f d3be
000000e0: 36d9 57be 23eb e0ba 60a2 a6be b4c2 a6be
000000f0: cb83 0abf 72f3 a1be 2e49 1bbe f43f 94be
00000100: ff3d 24be f64a 75be 3f7d 2f3d ced7 98be
00000110: 9462 d9be 6e4b 11be 585d 5e3e 1ad8 993e
00000120: 4df9 433e 8a11 fbbd f2a9 56be 7a1e 93be
00000130: 7992 d2bc a7b0 d03e b0a4 0a3e ada3 23be
00000140: 2763 f6be f542 403e c0cd 37bd 0ccf 71bd
00000150: 2033 5a3e 7b34 9dbe 0a31 433f 4e70 793e
00000160: e451 153f e944 7abe 03a5 5fbd 57f6 b23e
00000170: 5d10 a0bd 02a5 ab3e f6b9 8bbd 9c1b b73d
00000180: 2dae 723e a71c ed3c 562f 6bbd 9cf6 eb3d
00000190: a35e 4bbd 88be 873e 4165 10bd ce65 90be
000001a0: 81cf 56be 076f 4bbe 8d10 40be 853a 4bbe
000001b0: 0658 98be 6cd1 7ebe 38e7 b63e f01c d43b
000001c0: 5812 f93c 1b5f 5fbe 8796 21bf 2751 5fbe
000001d0: f585 a13e 19e8 b0be f4bf a6be 35ac 42be
000001e0: 0c49 b1be 1a23 a5be 88c0 92be b45f 86bd
000001f0: b3b1 1ebe e5d0 603e 5348 25be a5ac 5fbe
00000200: 78b2 ed3d 50dd 9ebe 9e88 cfbe 003d 30be
00000210: b5ca d73e 2679 4abe 002a b43e ace8 1fbb
00000220: 62bd 33be d346 2fbe bc0b 68be 7f79 253e
00000230: 80fe cebe 12a0 ccbe b2f5 83be 355e c5bd
00000240: b40f 00bf 6484 103d 94f4 bcbe a034 01bf
00000250: 2a5b ccbe 81bd 1f3e 0a11 1c3f 86d4 f03e
00000260: 9432 e6bd c625 0cbf fc0a 3dbe 87af 98be
00000270: 0608 aabe c140 81bd 61ba f7bd 1599 c93e
00000280: 011f 1dbf fe8e 91bd 3043 0f3e b213 b4be
00000290: 63c5 afbe b372 c93e c425 653d ed78 72be
000002a0: 81df 063e 48e7 86bc 58a6 edbd 6e91 2abe
000002b0: 275a 0fbf 416f 953c 7c28 cd3c d7c5 923c
000002c0: a1d9 833d a509 59be ade5 af3e 9468 62be
000002d0: 6f23 13be a8b1 d3be 90e5 dcbe e4ef 403e
000002e0: ddc3 dd3b 7f84 aabe f2bd ea3d 4caa 5bbe
000002f0: 9134 8abe 7da5 a9be 748d f53d acfc 74be
00000300: 354e 2ebd 40c2 60bd 9176 96be 6f6f a5be
00000310: 5a5c 96be 2d83 34be d1b5 3abc 1410 223f
00000320: 7843 1f3e bb38 a4bd 2cb7 d03e f847 aebe
00000330: 7fbd 803e b232 9ebe c4ae 9fbe 26eb 5a3d
00000340: 3b5f 003c 5240 363f 0425 e5bd 737e 8dbe
00000350: 5603 5ebe e535 9d3d 6b23 dabe cf9f d2be
00000360: ad0e 1d3f 57ad e5be 934c f3bd 7082 05be
00000370: 6c70 283e 7d3c 11be 701c b1bc 6ff3 933c
00000380: 9d77 afbd fdab f7bc dee8 fdbc 8903 69be
00000390: 082e a63b aeae 87be e2e4 803d f540 e9be
000003a0: 0d5f 353f 04b2 c6bd b747 3cbe d127 85be
000003b0: 9441 36be 693c 02be 971a bcbe 9a0a 88be
000003c0: 5b8d d03d f13b a4be c11f 10be e82a 58bd
000003d0: c127 9dbe bbed 23be 94ec fc39 13b5 0ebf
000003e0: c1eb c03e 38e1 11bc 488f 96bd 1ba6 81be
000003f0: 677e 9ebd 7cba 98be 494d 58be 7a6a 63be
-0.11107492 0.40936428 0.0062758303 -0.33068213 -0.3569305 -0.3506068 -0.44350606 0.34482324
-0.21465175 -0.109115265 -0.13485016 -0.04779163 -0.40064424 -0.47041178 -0.34253126 -0.12979227
-0.5387378 0.006450198 0.42926192 -0.31771776 0.3809467 0.025785131 -0.25050154 0.05976229
-0.26184136 -0.10566682 -0.037810884 -0.1655066 -0.3563836 -0.48112956 0.0864623 0.10605283
-0.016189942 -0.13601518 0.06648676 -0.32061732 -0.4739566 -0.12826183 -0.019910594 0.09544689
0.20231467 -0.2129875 -0.31613642 -0.14220434 0.04041802 -0.51994973 -0.33810487 -0.32803118
0.2405262 -0.23011948 -0.28933603 0.5746536 -0.3168824 -0.4224838 0.33010578 -0.41320044
-0.21078953 -0.001715992 -0.32545757 -0.32570422 -0.5410735 -0.31631047 -0.15164635 -0.28955042
-0.16039275 -0.23954377 0.042844053 -0.29852146 -0.42458022 -0.1418893 0.21715295 0.30047685
0.1913807 -0.12259205 -0.20963266 -0.2873419 -0.02570461 0.40759775 0.13539386 -0.15980406
-0.48122522 0.18775542 -0.044873953 -0.059035346 0.21308565 -0.30704102 0.762467 0.24359247
0.5832808 -0.2444035 -0.054600727 0.34953567 -0.07815621 0.33524328 -0.068225786 0.08940813
0.23699255 0.028944327 -0.05741819 0.115216464 -0.0496508 0.2651255 -0.035252813 -0.2820267
-0.20977594 -0.19866572 -0.18756314 -0.19846542 -0.29754657 -0.24884576 0.3572328 0.006473176
0.030404255 -0.21813624 -0.6312031 -0.21808301 0.31547514 -0.34552076 -0.32568324 -0.19011004
-0.34626043 -0.32253343 -0.28662515 -0.06561223 -0.15497474 0.21954687 -0.16140871 -0.21843202
0.11606306 -0.31028223 -0.40533918 -0.1721077 0.4214684 -0.19772777 0.35188293 -0.0024400158
-0.17552713 -0.17116861 -0.22660726 0.16159628 -0.40428543 -0.39965874 -0.25773388 -0.09637109
-0.5002396 0.035282508 -0.36905348 -0.50470924 -0.39913303 0.15599634 0.609635 0.47037143
-0.11240116 -0.5474514 -0.18461221 -0.29821417 -0.33209246 -0.06311179 -0.12096096 0.39374605
-0.61375433 -0.07107352 0.13990474 -0.35171276 -0.34330282 0.3934532 0.05594422 -0.23678942
0.13171197 -0.016467705 -0.11603993 -0.1665704 -0.55996937 0.018241527 0.025043719 0.017916603
0.06437994 -0.21195085 0.34354916 -0.22110206 -0.14368986 -0.41346478 -0.43143892 0.18841511
0.0067677335 -0.33304211 0.114620104 -0.21451682 -0.2699323 -0.3313407 0.11989871 -0.23924512
-0.042555053 -0.05487275 -0.29387334 -0.3231158 -0.29367334 -0.17628165 -0.0113958875 0.63305783
0.15553081 -0.08018633 0.4076475 -0.34039283 0.25144574 -0.30898052 -0.31188023 0.05344691
0.007835205 0.71191895 -0.11188701 -0.27635536 -0.2168096 0.07676295 -0.42605147 -0.4113755
0.6135052 -0.4485881 -0.1187984 -0.13038039 0.16449136 -0.1418323 -0.021620005 0.018060414
-0.08567736 -0.030233378 -0.030994829 -0.22755255 0.0050714053 -0.26500458 0.06293656 -0.4555737
0.7084816 -0.097019225 -0.18386732 -0.2600694 -0.17798454 -0.12718357 -0.36739036 -0.26570588
0.101832114 -0.32076982 -0.14074613 -0.052775294 -0.30694392 -0.16008656 0.0004824145 -0.5574505
0.37679866 -0.008903794 -0.073515475 -0.2532204 -0.07738953 -0.29829776 -0.21123232 -0.22208586

linear2.weight f4 [3, 256]
00000000: 5370 6d3e 5d76 273f 3b7b 8d3d 4f1e 323d
00000010: 0ef3 79bd 860d a5be 362d 693c 840a dc3e
00000020: 0670 0d3c a547 9a3e 265f 96be aa63 14bf
00000030: 1d66 7f3c 229e 84bd 700a 573c a878 1e3e
00000040: 8b18 30bd e73b 023d d1a2 fa3e 12c4 d6bd
00000050: 22c6 d33e 815d 013e 4730 98bc 14c4 e83e
00000060: 53dd 1c3d 8938 7dbc bf70 483e 64fb 0abd
00000070: 0172 923c a422 af3d ee93 3bbd 44e8 ba3e
00000080: 8955 87bc e4e4 29bc 382e dc3e 98c9 d53b
00000090: 0e27 42be 477d 1b3d e974 9c3d bdf3 79be
000000a0: 04be 1d3f e19b 8fbc c081 51bd 1e8c c4be
000000b0: 646d adbe 6677 9ebc c8f0 88be 605d 0bbf
000000c0: 52a3 823c fa9b c33e 7675 9bbe 25fb 353e
000000d0: f9ff 1ebe 403a bbbc 82c8 603e adf1 3bbe
000000e0: 3977 023d 080e bebd 0afa 1ebe c828 75be
000000f0: 3bf6 8a3d 35e8 dbba ec56 ffbd e809 98bc
00000100: 9d79 04bc a6ca 67bc 96d6 6f3e 6780 4fbc
00000110: 96f9 a23c a0a0 afbd 2ebd 733e cc9d 063f
00000120: 0b50 eb3e 11f6 813f 2e86 693e 28d6 49bc
00000130: fe50 153f 4cbe df3e 78a7 e4be 9911 8a3e
00000140: f965 ffbd 128b 803c cfee b2be 3ca2 0f3d
00000150: 5f91 253e bad6 783c c2c7 943e c6cd a43e
00000160: 5e8c 423e e801 4e3d 9561 9a3d ffde bd3e
00000170: e444 68bd 0509 883e 801c c23e 11e0 ec3e
00000180: 435e 9d3e ec6e cf3c 6690 d13b 55da 8a3c
00000190: 1ead 8fbe df71 b23e 772c d1bd c78a 2ebb
000001a0: eed2 3a3e 0c69 76bd a711 87bc 4900 4dbb
000001b0: f2c8 fdbb 60a2 e5bb 3aef 113e a59b b4bb
000001c0: 42ca b73d 5a0e ccbe d555 50be 0038 273c
000001d0: 7f22 e03e 6493 b6bd ec2e 3e3c f786 1abf
000001e0: a332 08bd 70cf e9bc ca14 09bd 6872 8abd
000001f0: ddbd 9e3b 69d8 413e 394d 4d3c bfe2 64be
00000200: 2577 2d3e 690a fdbd 65b0 a3bb 6195 e5bc
00000210: 92ed 073e fd60 6b3d 8a96 1e3e 6f07 72be
00000220: c13c ac3f 5d71 9e3d 693d a2bd c432 393e
00000230: c528 16b9 6e86 ed3e 5fd3 123c b3e7 ae3d
00000240: efec 9fbe f721 fa3a 4c21 d1bc 6ac0 6ebd
00000250: 054f a5bd 9f21 643d c3e9 793e ae07 0d3f
00000260: 21d3 cbbe 4cbc 7d3e 6910 acbe 530e 623c
00000270: 8970 b8bd 6f64 f5bd 5877 803b 33fb 383f
00000280: 273b 10be a5d6 46be 8da0 5f3e cd4b 4cbe
00000290: e152 42bb 963b ed3d c5a8 9dbd f76e f7bd
000002a0: a1b6 493e 525a 34be 701a a5bd b148 b4be
000002b0: 471f 143c 3f86 c3be 1054 813d e7d4 d13d
000002c0: 0ff5 a23e 4ba5 cb3d fb79 843e d846 09be
000002d0: d452 713d 1107 7f3e acba 6e3d 2fea e8be
000002e0: a3d1 5b3d 2c5c b3bb d550 f53e 5507 053f
000002f0: 2254 523d 97dc a8bd 3cae b93e b30d 88be
00000300: a13c dcbe 4006 203d 6efb f9bd e783 cc3c
00000310: b651 d83b d025 b2bd 4ce9 b63d 96dd 113f
00000320: 72d4 e23d 3ee8 333e 3e63 553e 9ee4 9fbc
00000330: 2a4b a43e d590 053e f0a9 2fbd ff84 b43e
00000340: 67c3 7e3e 42cd 0b3f 86fb 31bf 8499 d33d
00000350: 8e63 653f 2004 8a3c 3ac4 e33b 3806 d0bb
00000360: 25ee 073f 31c1 86be aa60 bb3a 866e ff3c
00000370: 9f82 d03e 1f25 9ebe 7d45 00be 21b2 f43e
00000380: f934 293c 7628 83bc f519 3bbc 7401 1cbf
00000390: 90b6 b93e 2314 8ebe ba1f 6f3e a6cc d9bc
000003a0: fa50 513e 8117 3dbf 88d5 c1bb f1b1 55be
000003b0: d261 3fbf 9e84 4d3d 3a5a 52bd a10f 86bb
000003c0: 5e4b ab3e 489b 193e 8085 e93d 0409 15bf
000003d0: 90b0 293c 1155 ba3c 23ac 7dbe f06d 05bc
000003e0: 0251 053e 5fa6 be3e ca41 b63d 3128 7abe
000003f0: a6c5 01bf a8bd 173c e99e 323e a62e 823d
0.2318738 0.65414983 0.0690827 0.043485936 -0.06102281 -0.3223688 0.0142319705 0.42976773
0.0086326655 0.30132785 -0.29369467 -0.57964575 0.015588311 -0.06475474 0.013125047 0.15475714
-0.042992156 0.03179541 0.48952344 -0.10486616 0.413621 0.12633325 -0.018577708 0.45462096
0.03829701 -0.015455374 0.19574259 -0.03393115 0.017876627 0.08551529 -0.045795374 0.3650533
-0.016520279 -0.010369513 0.43004012 0.006524276 -0.1896021 0.03796127 0.07639486 -0.24409385
0.61618066 -0.017530384 -0.05114913 -0.3838815 -0.3387252 -0.019344043 -0.26746202 -0.54439354
0.015947018 0.38204938 -0.30363053 0.17771585 -0.15527333 -0.022854924 0.21951488 -0.1835391
0.03185198 -0.0928002 -0.1552507 -0.23941338 0.06785246 -0.0016777577 -0.12467751 -0.018559411
-0.0080856355 -0.014147436 0.23421702 -0.012664891 0.019894402 -0.08575559 0.23802635 0.5258453
0.45959505 1.0153219 0.22805092 -0.012319125 0.5832671 0.43699872 -0.4465902 0.2696655
-0.124706216 0.015691314 -0.34947821 0.035066828 0.16168736 0.015187914 0.29058653 0.32188243
0.18998858 0.050294787 0.075381435 0.37084195 -0.056706324 0.2656938 0.3791237 0.462647
0.30735978 0.025321446 0.0063953875 0.016949812 -0.28061765 0.34852502 -0.10213559 -0.002663301
0.18244526 -0.060158774 -0.01648791 -0.0031280688 -0.007744902 -0.007007882 0.14251414 -0.0055117183
0.089741245 -0.398547 -0.20345242 0.0102062225 0.43776318 -0.08914831 0.011607867 -0.6036219
-0.033251416 -0.028541297 -0.03346709 -0.067601025 0.004844411 0.1893021 0.012530618 -0.22352122
0.16939981 -0.12355501 -0.004995393 -0.028025331 0.1327422 0.057465542 0.15487114 -0.23635648
1.3456041 0.07736466 -0.07921869 0.18085772 -0.00014320303 0.46391624 0.008961528 0.08540287
-0.31235453 0.0019083609 -0.025528572 -0.05828897 -0.080717124 0.055696126 0.2440558 0.55089843
-0.39809516 0.24778861 -0.3360627 0.0137973605 -0.090058394 -0.11982047 0.003920477 0.722583
-0.14085065 -0.19417818 0.21838589 -0.1995079 -0.002965145 0.11583631 -0.07698206 -0.12081712
0.19698574 -0.1761258 -0.08061683 -0.3521171 0.00904066 -0.3818836 0.06314862 0.10245686
0.3182759 0.099436365 0.25874314 -0.13405931 0.05891688 0.2490504 0.058283493 -0.45491168
0.053666722 -0.005473634 0.47913232 0.5196431 0.051349767 -0.08245199 0.36265743 -0.26572952
-0.43015006 0.03906846 -0.122061595 0.02496524 0.0066015376 -0.086986184 0.089312166 0.5697874
0.11075677 0.17569062 0.20838639 -0.019518193 0.32088596 0.1304353 -0.042886674 0.35257718
0.24879228 0.54610074 -0.6952442 0.10332015 0.89605033 0.01684767 0.0069508823 -0.0063483976
0.53097755 -0.26319268 0.0014295776 0.031180631 0.40724656 -0.30887696 -0.12526508 0.47792152
0.010327571 -0.016010504 -0.011419763 -0.6093972 0.36272097 -0.27749738 0.23351946 -0.026586842
0.20441046 -0.7386399 -0.0059153475 -0.2086866 -0.74758637 0.0501753 -0.051355578 -0.0040912186
0.33455938 0.15000641 0.11402416 -0.5821688 0.010357037 0.022745641 -0.24772696 -0.008143887
0.13019183 0.37236306 0.08899267 -0.24429394 -0.5069221 0.009261526 0.17443432 0.06356554

linear2.bias f4 [3]
00000000: 5960 c33e 197e ec3d 0f80 983d
0.38159445 0.11547489 0.074463
