model/model.pth (torch, 16799 bytes, 4 tensors)

linear1.weight f4 [256, 11]
0	0x3e1519ad	0.14560576
1	0xbed4932c	-0.41518533
2	0x3e53b386	0.20673952
3	0xbeefcb70	-0.46834898
4	0x3c806375	0.015672425
5	0xbec31a2a	-0.381059
6	0x3ee83e1e	0.45359892
7	0xbec3170b	-0.38103518
8	0xbe873df0	-0.26414442
9	0x3e8eae81	0.2786751
10	0xbf0441e7	-0.5166306
11	0xbe505ba4	-0.20347458
12	0xbec0b4bd	-0.37637892
13	0xbebeac0b	-0.37240633
14	0x3f0a3ff3	0.5400383
15	0xbf481dce	-0.7817048
16	0xbf4edc1b	-0.80804604
17	0x3e779925	0.24179514
18	0xbd9e935a	-0.07742949
19	0xbf0f87ef	-0.56066793
20	0xbf22c238	-0.63577604
21	0x3ed1a9db	0.40949902
22	0x3df2c8cf	0.118547074
23	0xbefa5f0b	-0.48900637
24	0xbe017dcf	-0.12645648
25	0xbf068b01	-0.52555853
26	0x3e5da623	0.21645407
27	0xbf13584f	-0.57556623
28	0x3f1efb27	0.6210198
29	0xbf047bff	-0.51751703
30	0xbf653d77	-0.8954691
31	0xbf5c43d7	-0.86041015
32	0x3eaea681	0.34111407
33	0x3ddc3e49	0.107540675
34	0xbf077d9f	-0.5292606
35	0xbb92e45d	-0.0044827894
36	0xbe02bef6	-0.12768158
37	0xbe09c428	-0.13453734
38	0xbdcec39e	-0.10095905
39	0xbf1658f1	-0.58729464
40	0xbe06255c	-0.13100189
41	0xbd812930	-0.06306684
42	0x3a3c3854	0.00071800244
43	0x3dd2dd35	0.10296098
44	0x3d9862d2	0.074407235
45	0xbf511436	-0.81671464
46	0x3e361021	0.1777959
47	0xbe8eb204	-0.2787019
48	0x3dccd6c5	0.100019015
49	0x3e034ae6	0.1282154
50	0xbeab016c	-0.33399522
51	0x3e6d2fb1	0.23162724
52	0xbf0a29f2	-0.53970253
53	0xbd08788e	-0.033318095
54	0x3eef0bce	0.46688694
55	0x3bf4cf7c	0.007471023
56	0x3e77e6fe	0.2420921
57	0xbf04f272	-0.5193244
58	0x3f3a9bf3	0.7289421
59	0xbd8963c2	-0.067084804
60	0x3ec21e8c	0.3791393
61	0xbeb31a61	-0.34981063
62	0xbd6b6065	-0.057464976
63	0xbf6488d4	-0.89271283
64	0x3e769895	0.24081643
65	0xbf26af44	-0.65111184
66	0xbef02b72	-0.46908146
67	0xbdb18a38	-0.08668941
68	0x3ec18619	0.3779762
69	0xbedd0b81	-0.4317284
70	0xbc850fca	-0.01624288
71	0x3d9a1e9d	0.0752537
72	0xbf1ce920	-0.6129322
73	0x3db65983	0.08903792
74	0xbe1cc4fd	-0.1530952
75	0xbe7e0726	-0.24807414
76	0xbf1ab802	-0.60437024
77	0x3ea0eb59	0.31429556
78	0x3f00a889	0.50257164
79	0x3e7f445d	0.24928422
80	0x3d56fb10	0.052485526
81	0x3d1cd35c	0.038287506
82	0x3d1e9688	0.038717777
83	0x3d26affb	0.04069517
84	0x3e6b652b	0.22987811
85	0x3e8a5550	0.27018213
86	0x3eb246f9	0.34819773
87	0x3ec72d82	0.38901907
88	0xbd12d5e7	-0.035848524
89	0x3c7574f6	0.014981499
90	0xbc0f84f4	-0.008759726
91	0x3ddd9871	0.108200915
92	0xbe5f4649	-0.21804155
93	0x3ec7d56a	0.3903001
94	0xbe4615c7	-0.19344245
95	0xbeb115c6	-0.34586924
96	0x3e5d831b	0.21632044
97	0xbedb4b9c	-0.42831123
98	0x3c9aa11b	0.01887565
99	0xbcaf7116	-0.021416228
100	0xbf0cf79c	-0.5506532
101	0x3f510ece	0.81663215
102	0xbe60ad86	-0.21941194
103	0x3c714456	0.014725765
104	0x3d16b1e1	0.036790732
105	0x3cd05f2e	0.02543601
106	0xbe5e6846	-0.21719465
107	0xbc8dd6a8	-0.01731427
108	0xbe4f0d81	-0.20219995
109	0xbd59fdb7	-0.053220477
110	0x3f12b8b1	0.57313067
111	0x3d07d4da	0.033161975
112	0x3d9735d1	0.073833115
113	0xbe356898	-0.1771568
114	0xbe25b24e	-0.16181299
115	0x3d209327	0.039202835
116	0xbe7b9192	-0.2456725
117	0x3f0d62b1	0.55228716
118	0x3f13c795	0.57726413
119	0x3ed2d905	0.41181198
120	0x3f257a6e	0.6463994
121	0x3df582a9	0.11987812
122	0x3e1c5b70	0.15269256
123	0xbe3dd73d	-0.18539138
124	0x3c3abe4a	0.0113979075
125	0xbeaf4dfe	-0.3423919
126	0x3e88d8af	0.26727816
127	0xbdba44b7	-0.090951376
128	0x3d16b8e7	0.03679743
129	0xbe789ead	-0.2427928
130	0xbea2f8e7	-0.31830522
131	0x3e54ae0d	0.2076952
132	0x3ef1f46a	0.47256786
133	0xbf49a435	-0.78766185
134	0x3f06dec3	0.5268366
135	0x3c9c03aa	0.019044716
136	0xbe09aeef	-0.13445638
137	0x3c1dbff1	0.009628282
138	0x3bee195b	0.007266206
139	0xbc4cc993	-0.012499231
140	0x3dd2d664	0.10294798
141	0x3cf990fb	0.03046464
142	0x3d4c762e	0.049917392
143	0x3f04c3b0	0.51861095
144	0x3c55e003	0.013053897
145	0xbe1e7d5f	-0.15477513
146	0xbee74bc4	-0.45174992
147	0x3d0ddd24	0.034634724
148	0x3ef94743	0.4868718
149	0x3e39bcb4	0.18138391
150	0x3ea2fcbe	0.31833452
151	0xbda2437c	-0.07923028
152	0xbf172740	-0.59044266
153	0xbe93c4aa	-0.2886098
154	0xbec6a464	-0.38797295
155	0x3e0d1448	0.13777268
156	0x3dd91ab6	0.10600798
157	0xbd7c479e	-0.061591737
158	0xbda4decd	-0.080503084
159	0xbe3e5fe7	-0.18591271
160	0xbd657a8d	-0.056025077
161	0xbd8e16a9	-0.06937916
162	0x3d3c3ac0	0.045954466
163	0xbe242289	-0.16028799
164	0x3d4738ae	0.04863804
165	0xbe917dbe	-0.28416246
166	0x3dc227ff	0.09480285
167	0xbd0907aa	-0.033454575
168	0xbe0a1c87	-0.13487445
169	0xbee7e587	-0.45292303
170	0xbe2adab9	-0.16684999
171	0xbef85e65	-0.48509517
172	0xbe8768c1	-0.26447108
173	0x3e794c4b	0.2434551
174	0x3e37aecc	0.17937773
175	0x3e0ea8c0	0.1393156
176	0x3f3a226b	0.7270877
177	0xbf3a5ac1	-0.7279473
178	0x3f0cf072	0.5505439
179	0x3e2fd1e3	0.17169909
180	0x3dc92990	0.098223805
181	0xbe4f476e	-0.20242092
182	0xbccc0abf	-0.024907468
183	0xbe81539f	-0.2525911
184	0xbd9f7632	-0.07786216
185	0x3f0ecd4c	0.5578201
186	0x3eb31d5e	0.34983343
187	0x3dc22f15	0.094816364
188	0x3ec89ad3	0.39180622
189	0xbf1cd5a6	-0.612635
190	0xbd9c2fe4	-0.07626322
191	0xbe072059	-0.13195933
192	0x3e5fe455	0.21864446
193	0x3ca7ed1e	0.020498808
194	0xbe457d7b	-0.19286148
195	0x3d738a8a	0.059458293
196	0xbe01cabb	-0.12674992
197	0xbe0f93a0	-0.14021158
198	0x3e00588d	0.1253378
199	0xbef946a5	-0.4868671
200	0xbd14636d	-0.036227632
201	0x3d28b9dd	0.041192878
202	0xbeb3f8c0	-0.3515072
203	0x3edefb9b	0.43551335
204	0xbed77a9c	-0.4208573
205	0xbf1c5b0c	-0.61076427
206	0xbf0aa3a0	-0.5415592
207	0x3e9f8f0c	0.31163824
208	0xbf24f40e	-0.644349
209	0xbe446bea	-0.19181791
210	0xbedcff41	-0.43163493
211	0xbe4f949b	-0.20271532
212	0xbed1e320	-0.40993595
213	0xbeddf1e2	-0.43348604
214	0xbd29ad4f	-0.041425046
215	0x3e23319a	0.1593689
216	0x3d3fb882	0.04680682
217	0x3e1dc94c	0.1540882
218	0xbf1878af	-0.5955915
219	0xbf2086d6	-0.62705743
220	0x3e2da89d	0.16958852
221	0x3d896a43	0.06709721
222	0x3ed7906b	0.4210237
223	0xbe243d6b	-0.16039054
224	0xbeeaa43a	-0.4582842
225	0xbed151ee	-0.4088282
226	0xbe06edcb	-0.13176648
227	0x3ee0e826	0.43927115
228	0x3f252985	0.6451648
229	0x3f39c659	0.7256828
230	0x3ec2cb15	0.38045564
231	0x3b43b35c	0.0029861545
232	0xbdd7b37f	-0.10532283
233	0xbbee9ae5	-0.0072816485
234	0xbe83064b	-0.2559074
235	0xbe3f5674	-0.18685323
236	0xbe637959	-0.22214259
237	0xbe781b50	-0.24229169
238	0x3e700d50	0.23442578
239	0x3defdde9	0.11712248
240	0x3e265b76	0.16245827
241	0x3e3b9e24	0.18322045
242	0x3f0abc86	0.54193914
243	0x3d71e450	0.059055626
244	0xbc1595b0	-0.009129927
245	0xbe2d72ea	-0.16938367
246	0xbeefa107	-0.46802542
247	0x3ee60a78	0.44929862
248	0x3e98ad33	0.2981964
249	0x3e1969b8	0.14981735
250	0x3f085a2c	0.5326259
251	0xbed3d9aa	-0.41377002
252	0xbea5d55f	-0.32389352
253	0xbf5a6557	-0.8531088
254	0x3f220456	0.63287866
255	0x3e002061	0.12512352

linear1.bias f4 [256]
0	0xbe15f0b4	-0.14642602
1	0x3e9faa94	0.31184828
2	0x3e592af5	0.21207793
3	0xbe7075d8	-0.23482454
4	0xbea4dc0f	-0.3219914
5	0x3e303fa1	0.17211773
6	0xbdd6bf2d	-0.10485683
7	0xbf12b612	-0.5730907
8	0xbeb2b00e	-0.34899944
9	0xbd71612f	-0.058930572
10	0xbefb2620	-0.49052525
11	0xbe79928f	-0.24372314
12	0xbe3f4b82	-0.18681148
13	0x3d066d3e	0.032819025
14	0xbecea423	-0.403596
15	0xbec446f7	-0.38335392
16	0xbeb35abe	-0.35030168
17	0xbe79b44c	-0.24385184
18	0x3da650f8	0.08120912
19	0x3e67768d	0.22603817
20	0xbec64f44	-0.3873235
21	0xbeb4b0b5	-0.35291067
22	0xbde6c9de	-0.11268972
23	0x3ef5eedc	0.48033798
24	0x3ea11912	0.3146444
25	0xbeb3b1dd	-0.35096636
26	0xbe4f279b	-0.20229952
27	0x3e600956	0.21878561
28	0xbeb0850d	-0.3447651
29	0xbe9a57b1	-0.30145028
30	0xbe6b2371	-0.22962739
31	0xbe8d2321	-0.27565864
32	0x3bb0021e	0.005371346
33	0xbe1fed81	-0.15617944
34	0xbee69c18	-0.45040965
35	0x3d614d72	0.0550055
36	0xbe41a3fb	-0.1891021
37	0x3e52ada3	0.2057405
38	0xbeacc73c	-0.33745754
39	0xbcff9bbe	-0.031202193
40	0xbea620ee	-0.32446998
41	0xbeaf8ae5	-0.34285656
42	0xbeacaeb3	-0.33727035
43	0xbe4b375a	-0.19845334
44	0x3c305a01	0.010763646
45	0x3d54502a	0.051834263
46	0xbed9a8cb	-0.4251159
47	0xbcd1af56	-0.025596302
48	0x3e90f12f	0.28309008
49	0xbe6e606b	-0.23278968
50	0xbe48f05a	-0.19622937
51	0xbe90d4d3	-0.28287372
52	0xbeae4821	-0.34039405
53	0xbeb25c0c	-0.3483585
54	0xbef3e74d	-0.47637406
55	0x3bf93950	0.007605709
56	0xbe22d9d0	-0.15903401
57	0xbeab5391	-0.33462194
58	0xbeb314d0	-0.34976816
59	0xbd9be2c6	-0.07611613
60	0x3d84df05	0.0648785
61	0x3d0de749	0.0346444
62	0x3e3fe49d	0.18739553
63	0xbd9fb8e2	-0.077989355
64	0xbe980e94	-0.29698622
65	0x3dbdd8be	0.09269856
66	0x3ea84557	0.32865402
67	0xbcbae37d	-0.022813553
68	0xbe17a0c8	-0.14807427
69	0xbea86fbb	-0.32897744
70	0xbe174c79	-0.14775266
71	0xbe8510d2	-0.25989395
72	0x3db36418	0.08759326
73	0xbe1ee61f	-0.15517472
74	0x3f0a034d	0.53911287
75	0xbe842342	-0.2580815
76	0xbec1cbaa	-0.37850696
77	0xbeb19533	-0.34684142
78	0x3d59e9cc	0.05320148
79	0xbecc1c46	-0.3986532
80	0x3f5b0fd4	0.85571027
81	0xbe249d0d	-0.16075535
82	0xbf083ed5	-0.53220874
83	0xbe23c49d	-0.15992971
84	0x3d73dad6	0.05953487
85	0xbeab46c4	-0.33452427
86	0xbeea88bf	-0.45807454
87	0xbdfe6d43	-0.12423184
88	0xbe45d8df	-0.19321011
89	0xbd370fd2	-0.04469282
90	0x3e01c828	0.1267401
91	0xbea4197c	-0.32050693
92	0xbf1ca998	-0.6119628
93	0xbd4462b4	-0.047945693
94	0xbea4a0b8	-0.3215387
95	0xbe85428a	-0.26027328
96	0x3ecc6b3a	0.39925557
97	0xbe0a72ba	-0.13520327
98	0xbec24c0e	-0.3794865
99	0xbd7347a8	-0.05939451
100	0x3e5fa1b8	0.21839035
101	0xbe81aed6	-0.25328702
102	0x3e61df18	0.2205776
103	0xbf066b70	-0.52507687
104	0x3e47a9ab	0.19498317
105	0xbe44973c	-0.19198316
106	0x3e5a81c9	0.21338572
107	0xbe9fc928	-0.31208158
108	0x3d2fa737	0.042884078
109	0xbeb02fb5	-0.34411398
110	0xbe663fd6	-0.22485289
111	0xbee01362	-0.43764788
112	0xbed21ef7	-0.4103925
113	0xbcf13049	-0.02944197
114	0xbe09c859	-0.13455333
115	0xbee56665	-0.44804683
116	0xbe9c4184	-0.30518734
117	0xbef453a6	-0.4772007
118	0x3eabaf99	0.33532408
119	0xbf0eeadd	-0.5582712
120	0x3e81c3f1	0.25344804
121	0xbf021a48	-0.5082135
122	0xbebc7061	-0.36804488
123	0xbe604fc9	-0.21905436
124	0xbf037672	-0.5135261
125	0xbe833849	-0.2562888
126	0xbed1ceaa	-0.40977985
127	0xbdc7718d	-0.09738455
128	0xbe428263	-0.18995051
129	0x3eff387d	0.49847785
130	0x3f02aa53	0.51041144
131	0xbcc0a662	-0.023516838
132	0x3d0d0512	0.034428664
133	0xbda52e2c	-0.08065447
134	0xbe2eb217	-0.17060123
135	0x3d942b72	0.07234849
136	0xbdace293	-0.08441653
137	0xbc4764bd	-0.012170014
138	0xbe3b4b54	-0.18290454
139	0x3e50fd64	0.20409161
140	0xbed478c0	-0.41498375
141	0xbda52d87	-0.08065324
142	0xbd321f04	-0.04348661
143	0xbe5b99c1	-0.21445371
144	0xbe931b68	-0.28731847
145	0xbed77b61	-0.42086318
146	0xbeb487f5	-0.35259977
147	0xbe10c6ae	-0.1413829
148	0xbec56324	-0.385522
149	0xbe9ce7b0	-0.30645514
150	0x3ea6c038	0.32568526
151	0xbd09c02b	-0.03363053
152	0x3e9ab90a	0.302193
153	0xbda13861	-0.078720815
154	0xbdb0bb49	-0.08629472
155	0x3d3e7276	0.046495877
156	0x3df251e1	0.118320234
157	0xbe62daa9	-0.22153725
158	0xbcb48c1a	-0.022039462
159	0xbe1ff0a5	-0.15619142
160	0xbe934f52	-0.28771454
161	0xbe32657b	-0.17421524
162	0x3e0f2fe0	0.13983107
163	0x3ebf77c2	0.37396055
164	0xbe2276d3	-0.1586564
165	0xbd83a0f6	-0.06427185
166	0xbe840841	-0.25787547
167	0xbe362776	-0.1778849
168	0xbd96cf8f	-0.073638074
169	0x3e13d5f0	0.1443708
170	0x3edaa01e	0.42700285
171	0xbdd751ca	-0.10513647
172	0x3c301a88	0.010748513
173	0x3db22a4e	0.08699475
174	0xbe1bb724	-0.15206581
175	0x3c72ff50	0.014831379
176	0xbf050775	-0.51964504
177	0xbe85f200	-0.26161194
178	0xbceeb38a	-0.029138345
179	0x3ed0dab8	0.4079187
180	0xbee66e92	-0.45006233
181	0x3c9a26d9	0.018817352
182	0xbefe1f5c	-0.496333
183	0xbee373e1	-0.44424346
184	0xbea117d4	-0.31463492
185	0x3d96de04	0.07366565
186	0xbe785e47	-0.24254714
187	0xbdbb7f82	-0.091551796
188	0xbe42085f	-0.18948506
189	0xbe854c40	-0.26034737
190	0xbe751263	-0.23932795
191	0xbe628346	-0.2212039
192	0x3ef4734c	0.47744215
193	0x3f3c426f	0.7353887
194	0x3ec103da	0.3769825
195	0xbeb49d6a	-0.35276347
196	0x3e433b85	0.19065674
197	0xbe1f9569	-0.15584339
198	0xbe754651	-0.23952605
199	0xbe14ff82	-0.14550593
200	0xbe8516d0	-0.25993967
201	0x3d14c234	0.03631802
202	0xbba02065	-0.004886674
203	0x3fd54268	1.666089
204	0xbe6fc449	-0.2341472
205	0x3e8d40ba	0.27588445
206	0x3f22ae42	0.63547146
207	0xbdb058ac	-0.08610663
208	0xbedfe5c7	-0.43729994
209	0xbe63092b	-0.22171466
210	0xbda3f982	-0.08006574
211	0xbe99a38f	-0.30007598
212	0xbee8c5b3	-0.45463333
213	0xbed2d84e	-0.41180652
214	0xbd711b15	-0.058863718
215	0xbdc0e97b	-0.09419533
216	0xbf08ccc6	-0.5343746
217	0xbe9b73d9	-0.30361822
218	0xbe096555	-0.13417561
219	0x3e4e888e	0.20169279
220	0xbe36e809	-0.17861952
221	0xbe781602	-0.24227145
222	0x3dff41c0	0.12463713
223	0xbd06bf28	-0.032897145
224	0xbe96c2ff	-0.29445645
225	0x3f084054	0.53223157
226	0x3d153ad5	0.03643306
227	0xbe9817b8	-0.29705596
228	0xbe956f32	-0.29186398
229	0x3c8282fc	0.015931599
230	0x3de9d16f	0.114168994
231	0x3e48f978	0.19626415
232	0xbe32913a	-0.17438212
233	0xbef323b4	-0.47488177
234	0xbecfd6fd	-0.4059371
235	0xbe85cde3	-0.26133642
236	0xbf02aa98	-0.51041555
237	0x3e444b40	0.1916933
238	0xbe35f450	-0.17768979
239	0xbeefb0bc	-0.46814525
240	0x3eee60e3	0.46558294
241	0x3e88f732	0.26751095
242	0xbef261e7	-0.4734032
243	0xbe9c8e93	-0.30577525
244	0xbe40a487	-0.18812762
245	0xbe3e0e5a	-0.18560162
246	0xbdbf82d7	-0.093511276
247	0x3d4216db	0.047385078
248	0xbedd01bd	-0.4316539
249	0xbe2d5f8c	-0.1693098
250	0xbeadc8a3	-0.33942136
251	0xbe9c497d	-0.30524817
252	0xbe1219f8	-0.14267719
253	0xbe078393	-0.13233785
254	0xbe54cf6e	-0.20782253
255	0x3f4e9912	0.80702317

linear2.weight f4 [3, 256]
0	0xbe9a5a7c	-0.3014716
1	0x3ea97562	0.33097368
2	0x3f181cc1	0.59418875
3	0x3e43a207	0.19104777
4	0xbd0f600c	-0.035003707
5	0x3edad556	0.42740887
6	0xbd13d533	-0.036091994
7	0xbd19799c	-0.03746949
8	0xbc92ae49	-0.017905371
9	0x3de4d928	0.11174232
10	0xbea04107	-0.31299612
11	0xbcfe83e3	-0.031068748
12	0x3d277a6e	0.040888242
13	0xbe5d6d2d	-0.21623679
14	0x3c40fd4f	0.0117791435
15	0x3b77af4c	0.0037793694
16	0xbe4ff10f	-0.203068
17	0xbd9bde17	-0.0761072
18	0x3e9ea4fc	0.30985248
19	0x3f6e3bb4	0.9305985
20	0xbe9d93ed	-0.3077692
21	0xbbd24a41	-0.006417543
22	0xbecce98b	-0.4002193
23	0x3e89bed3	0.269034
24	0x3eb26215	0.34840456
25	0xbef230a7	-0.47302744
26	0xbe470c21	-0.1943822
27	0x3edbaffb	0.429077
28	0xbd558c93	-0.052136015
29	0x3de20fc1	0.11038161
30	0x3ae00221	0.0017090478
31	0xbe546065	-0.20739897
32	0x3beaeda9	0.0071694446
33	0x3b8b106c	0.004243901
34	0x3c29517b	0.010334368
35	0xbe25ff92	-0.16210774
36	0xbddca3e1	-0.10773445
37	0xbebb0cab	-0.36533102
38	0x3c2faccd	0.010722351
39	0x3d079db0	0.033109367
40	0xbdc8432d	-0.09778438
41	0x3de93e67	0.113888554
42	0x3fef45db	1.8693193
43	0x3eca61e7	0.3952782
44	0xbcc6da2e	-0.024273958
45	0x3e8c4732	0.27398068
46	0xbe2fc37f	-0.1716442
47	0x3d9577ad	0.07298217
48	0x3daf0347	0.08545547
49	0x3de6574c	0.11247119
50	0xbc9406f2	-0.018069718
51	0x3b9a159b	0.0047022826
52	0x3b9610b5	0.0045796284
53	0xbdd392b9	-0.103307195
54	0x3ea539bf	0.3227062
55	0x3f0dc34b	0.5537612
56	0xbf0c5a0d	-0.54824907
57	0x3c83f0cf	0.016106037
58	0xbbcf370e	-0.0063237017
59	0x3e7c3ab2	0.24631765
60	0x3cf236a2	0.029567067
61	0xbdf09c56	-0.11748569
62	0x3e70b16f	0.23505186
63	0x3df45e00	0.119319916
64	0xbd62025c	-0.05517803
65	0x3f1fc317	0.6240706
66	0x3d9a7232	0.07541312
67	0xbd6e1ced	-0.058133055
68	0x3c5a4971	0.013323174
69	0xbe97543b	-0.2955645
70	0xbef51bd6	-0.478728
71	0xbcad2403	-0.021135336
72	0x3f21adcf	0.63155836
73	0xbf16b8a4	-0.5887549
74	0x3f04ab68	0.51824045
75	0xbc321fbe	-0.010871826
76	0x3d72f022	0.05931104
77	0xbdd2ce44	-0.10293248
78	0x3ec05cf7	0.37570927
79	0x3c9789c0	0.018498302
80	0x3e3c7935	0.18405612
81	0x3ea3713a	0.31922323
82	0x3c80ac67	0.015707208
83	0xbf19f806	-0.6014408
84	0x3e4fe8d7	0.20303665
85	0xba1aa7df	-0.00058996485
86	0xbcfb90c1	-0.030708672
87	0xbe7626de	-0.24038264
88	0xbe310888	-0.1728841
89	0xbc4b4afb	-0.012408013
90	0x3e43f463	0.19136195
91	0x3d80539e	0.06265949
92	0xbddc8a5f	-0.1076858
93	0x3d60eecd	0.05491524
94	0x3c6ec784	0.014573935
95	0xbcd38239	-0.025818931
96	0x3e9f776a	0.31145793
97	0x3e179961	0.14804603
98	0x3c2be122	0.010490688
99	0xbe7b5ae0	-0.24546385
100	0x3e98d3aa	0.29848987
101	0x3c7cd73e	0.015432177
102	0x3e287b47	0.16453277
103	0xbe85ada4	-0.2610904
104	0x3ec8bf55	0.39208475
105	0xbdc40505	-0.0957127
106	0x3ed1271b	0.40850148
107	0x3e9c5c97	0.3053939
108	0x3e18c1ca	0.14917675
109	0xbdb7cdf7	-0.089748316
110	0xbdba963b	-0.091106854
111	0x3c0bbf7b	0.008529539
112	0x3d2f353e	0.042775385
113	0x3ec95673	0.39323768
114	0x3e88f2e0	0.267478
115	0x3e8b1e66	0.2717163
116	0xbd79b815	-0.06096657
117	0x3cccecfa	0.025015343
118	0x3edd9bb6	0.4328286
119	0xbd0f8acb	-0.035044473
120	0x3eae7fa5	0.3408176
121	0x3b5df9ab	0.0033870738
122	0xbc0fc064	-0.008773897
123	0xbddedebd	-0.10882328
124	0xbd36c5f3	-0.044622373
125	0xbe8f0db4	-0.27940142
126	0xbd4f6dc8	-0.050641805
127	0x3ce0f9d4	0.027462877
128	0x3e1b6c25	0.15177973
129	0x3e82a12d	0.25513592
130	0x3ebb8773	0.36626777
131	0xbe5865cc	-0.21132582
132	0x3ee9cd37	0.4566438
133	0x3d7cbc18	0.061702818
134	0xbe3ab860	-0.18234396
135	0x3e9449ca	0.28962547
136	0xbe3df262	-0.18549493
137	0xbf0341e5	-0.5127242
138	0xbe8a9723	-0.27068433
139	0x3eefd651	0.46843198
140	0x3d63dd71	0.055631105
141	0x3dffe619	0.124950595
142	0xbdfd9588	-0.123820364
143	0xbec28077	-0.37988636
144	0xbe5bb471	-0.21455552
145	0x3d4466bf	0.04794955
146	0xbd111c3d	-0.03542732
147	0xbeb13a1e	-0.34614652
148	0x3ca9f7a8	0.020747975
149	0x3fa8320e	1.3140275
150	0x3d1e09fa	0.038583733
151	0xbe34cd0e	-0.17656347
152	0x3e721e70	0.23644423
153	0xbe203e67	-0.15648805
154	0x3e4df86b	0.20114295
155	0x3d39ec59	0.045391414
156	0x3e8481bc	0.2588023
157	0xbdd17b9f	-0.10228657
158	0xbd518bca	-0.051158704
159	0xbb9cedb9	-0.004789081
160	0xbe84a373	-0.25905952
161	0x3dc423d2	0.09577145
162	0x3c56aa1c	0.013102081
163	0x3e8d5f56	0.27611798
164	0x3cc44999	0.023960875
165	0x3eab986d	0.3351473
166	0xbc1db2bb	-0.009625132
167	0xbd4a15a4	-0.049337044
168	0xbeeb0af7	-0.45906803
169	0x3e2d2e20	0.16912127
170	0x3e0f10d8	0.13971269
171	0x3f272511	0.65290934
172	0xbed20fee	-0.41027778
173	0x3ed3da14	0.41377318
174	0xbed5b72f	-0.4174132
175	0xbe9c4f7d	-0.30529395
176	0xbddb234c	-0.10700092
177	0xbe10f155	-0.14154561
178	0xbe28e883	-0.16494946
179	0x3e9ac6c0	0.3022976
180	0x3c194b9e	0.009356407
181	0xbea64d77	-0.32480976
182	0x3d676983	0.05649711
183	0x3ec8da61	0.3922911
184	0x3e204e2c	0.1565482
185	0x3e8569ed	0.26057377
186	0x3e1b7ae5	0.151836
187	0x3e8c8ef1	0.27452806
188	0xbce24b76	-0.027623873
189	0xbeab4b4a	-0.33455878
190	0x3d267d09	0.040646587
191	0xbc2c44e0	-0.010514468
192	0x3e884006	0.26611346
193	0x3e3ea72d	0.1861846
194	0x3eec6e06	0.4617769
195	0x3cf6baef	0.030118434
196	0x3de771de	0.11301015
197	0xbba5c45a	-0.0050588073
198	0xbe723ef6	-0.2365683
199	0xbbb2d04d	-0.0054569603
200	0xbd005c89	-0.03133825
201	0x3e9629a6	0.2932865
202	0xbcc8c9cb	-0.024510285
203	0x3eb547b7	0.35406277
204	0x3b84e0c4	0.0040551145
205	0x3ed88396	0.42287892
206	0x3f0fcec9	0.56174904
207	0x3cc5fd32	0.024168584
208	0xbdd54df0	-0.10415256
209	0x3d0a5eb2	0.033781715
210	0xbf02f710	-0.5115824
211	0x3d4614fb	0.048359852
212	0xbe04dabb	-0.12974064
213	0xbb1e66d8	-0.0024170186
214	0xbe81c6d1	-0.25346997
215	0xbd534a9f	-0.051584836
216	0xbbbccade	-0.0057614883
217	0xbc20402b	-0.009780924
218	0xbc9dc914	-0.01926092
219	0x3e94e26f	0.29079005
220	0xbed9cfbb	-0.42541298
221	0xbe9af232	-0.30262905
222	0xbe8e41f9	-0.27784708
223	0x3ea2a047	0.31762907
224	0xbe203d19	-0.15648307
225	0x3e99da2a	0.30049258
226	0xbc5c461d	-0.013444451
227	0x3d227dfc	0.03967093
228	0xbdaf759b	-0.08567353
229	0x3f14719f	0.5798587
230	0xbeb3058e	-0.34965175
231	0x3d71e38a	0.05905489
232	0xbd054872	-0.032539792
233	0x3eb8c7e7	0.36090013
234	0x3e141215	0.14460023
235	0xbec09e1a	-0.37620622
236	0xbcd13620	-0.025538504
237	0xbd1b4161	-0.037904147
238	0xbe3f3ee0	-0.18676329
239	0xbe157e71	-0.14599015
240	0x3e65f39d	0.22456212
241	0x3ebdd02c	0.37072885
242	0x3c82a735	0.015948871
243	0xbe1fe676	-0.15615258
244	0xbcdcbbd8	-0.02694504
245	0x3e8407c0	0.25787163
246	0xbecdc59e	-0.40189832
247	0x3f197b4d	0.5995377
248	0x3cfbd735	0.030742267
249	0xbe6ff05f	-0.23431538
250	0xbe96fc08	-0.2948916
251	0x3c5d171e	0.013494281
252	0x401ff679	2.4994185
253	0xbc2d3cc9	-0.010573574
254	0xbccb2904	-0.024799831
255	0x3edd84ba	0.43265325

linear2.bias f4 [3]
0	0x3efa08b6	0.4883477
1	0x3d6c35d5	0.057668526
2	0x3d67ed0f	0.05662256
